examples/micro-speech/lib/model.tflite (tflite, 18288 bytes, 2 tensors)

weights_quant/FakeQuantWithMinMaxVars u1 [1, 10, 8, 8] scale=0.00071357994 zero_point=132
0	0x60	-0.025688877
1	0x38	-0.054232076
2	0xab	0.027829617
3	0xcb	0.050664175
4	0xfa	0.08420243
5	0x7e	-0.00428148
6	0xa2	0.021407397
7	0x55	-0.033538256
8	0x6e	-0.015698759
9	0x87	0.00214074
10	0xa5	0.023548137
11	0x9b	0.016412338
12	0xb4	0.03425184
13	0x66	-0.021407397
14	0x5c	-0.028543197
15	0x6f	-0.014985179
16	0xae	0.029970357
17	0xdb	0.062081456
18	0xcd	0.052091334
19	0xb6	0.035678998
20	0xc2	0.044241957
21	0x60	-0.025688877
22	0xa9	0.026402459
23	0x7d	-0.0049950597
24	0xd4	0.057086393
25	0xac	0.028543197
26	0xa6	0.024261719
27	0x90	0.00856296
28	0x87	0.00214074
29	0x6b	-0.017839499
30	0x50	-0.037106156
31	0x95	0.012130859
32	0xde	0.064222194
33	0xcd	0.052091334
34	0xaa	0.027116038
35	0xa1	0.020693818
36	0x9c	0.01712592
37	0x65	-0.022120979
38	0xb5	0.03496542
39	0x6d	-0.016412338
40	0xb0	0.031397518
41	0xa5	0.023548137
42	0xa5	0.023548137
43	0x7f	-0.0035678996
44	0x73	-0.012130859
45	0x95	0.012130859
46	0x63	-0.023548137
47	0x81	-0.00214074
48	0x7a	-0.007135799
49	0xc6	0.047096275
50	0xaf	0.030683937
51	0x82	-0.0014271599
52	0x69	-0.019266658
53	0x89	0.0035678996
54	0xc3	0.044955537
55	0x3c	-0.051377755
56	0x47	-0.043528378
57	0x73	-0.012130859
58	0x89	0.0035678996
59	0x4f	-0.037819736
60	0x33	-0.057799976
61	0xbc	0.039960478
62	0x85	0.00071357994
63	0x5d	-0.027829617
64	0x69	-0.019266658
65	0x11	-0.08206169
66	0x5b	-0.029256778
67	0xb9	0.037819736
68	0xf1	0.07778022
69	0x95	0.012130859
70	0x8f	0.007849379
71	0x5c	-0.028543197
72	0x7c	-0.0057086395
73	0x59	-0.030683937
74	0x6c	-0.01712592
75	0xa0	0.019980239
76	0xa5	0.023548137
77	0x7c	-0.0057086395
78	0x5a	-0.029970357
79	0x7c	-0.0057086395
80	0xb5	0.03496542
81	0xa9	0.026402459
82	0x7e	-0.00428148
83	0xa1	0.020693818
84	0xb8	0.037106156
85	0x65	-0.022120979
86	0xb3	0.033538256
87	0x86	0.0014271599
88	0xc1	0.043528378
89	0x9f	0.019266658
90	0x5c	-0.028543197
91	0x86	0.0014271599
92	0x7f	-0.0035678996
93	0x74	-0.011417279
94	0x52	-0.035678998
95	0xa8	0.025688877
96	0xc9	0.049237017
97	0xc5	0.046382695
98	0x71	-0.013558019
99	0x96	0.012844439
100	0x7a	-0.007135799
101	0x65	-0.022120979
102	0xc7	0.047809854
103	0x69	-0.019266658
104	0x94	0.011417279
105	0xa7	0.024975298
106	0x65	-0.022120979
107	0x68	-0.019980239
108	0x69	-0.019266658
109	0x8d	0.0064222193
110	0x6d	-0.016412338
111	0x9e	0.018553078
112	0x59	-0.030683937
113	0xd4	0.057086393
114	0x75	-0.010703699
115	0x7a	-0.007135799
116	0x4f	-0.037819736
117	0x70	-0.014271598
118	0xca	0.049950596
119	0x48	-0.042814795
120	0x25	-0.06779009
121	0x8a	0.00428148
122	0x69	-0.019266658
123	0x4d	-0.0392469
124	0x2a	-0.064222194
125	0xa6	0.024261719
126	0x76	-0.009990119
127	0x69	-0.019266658
128	0x6a	-0.018553078
129	0x02	-0.09276539
130	0x3b	-0.052091334
131	0xa2	0.021407397
132	0xea	0.072785154
133	0xc2	0.044241957
134	0x73	-0.012130859
135	0x6b	-0.017839499
136	0x86	0.0014271599
137	0x4d	-0.0392469
138	0x3a	-0.052804917
139	0xa2	0.021407397
140	0xa2	0.021407397
141	0x88	0.0028543198
142	0x4e	-0.038533315
143	0x6c	-0.01712592
144	0xb3	0.033538256
145	0x83	-0.00071357994
146	0x39	-0.053518496
147	0x93	0.010703699
148	0xa6	0.024261719
149	0x85	0.00071357994
150	0xb8	0.037106156
151	0x7a	-0.007135799
152	0xa8	0.025688877
153	0x7d	-0.0049950597
154	0x2e	-0.061367873
155	0x7b	-0.0064222193
156	0x7f	-0.0035678996
157	0x69	-0.019266658
158	0x56	-0.032824676
159	0xb5	0.03496542
160	0xbb	0.0392469
161	0xae	0.029970357
162	0x23	-0.06921726
163	0x78	-0.00856296
164	0x67	-0.020693818
165	0x5c	-0.028543197
166	0xd2	0.055659235
167	0x82	-0.0014271599
168	0x7d	-0.0049950597
169	0x96	0.012844439
170	0x46	-0.044241957
171	0x74	-0.011417279
172	0x70	-0.014271598
173	0x72	-0.012844439
174	0x6a	-0.018553078
175	0x90	0.00856296
176	0x43	-0.046382695
177	0xce	0.052804917
178	0x44	-0.045669116
179	0x75	-0.010703699
180	0x4a	-0.041387636
181	0x58	-0.031397518
182	0xc7	0.047809854
183	0x5c	-0.028543197
184	0x34	-0.057086393
185	0x84	0.0
186	0x46	-0.044241957
187	0x4b	-0.040674057
188	0x41	-0.047809854
189	0x6c	-0.01712592
190	0x62	-0.024261719
191	0x83	-0.00071357994
192	0x7e	-0.00428148
193	0x01	-0.09347897
194	0x9b	0.016412338
195	0x9b	0.016412338
196	0xeb	0.07349873
197	0xf7	0.08206169
198	0x58	-0.031397518
199	0x6f	-0.014985179
200	0x8a	0.00428148
201	0x43	-0.046382695
202	0xb3	0.033538256
203	0x9f	0.019266658
204	0x9c	0.01712592
205	0x9e	0.018553078
206	0x55	-0.033538256
207	0xa8	0.025688877
208	0xaa	0.027116038
209	0x84	0.0
210	0x8f	0.007849379
211	0x8f	0.007849379
212	0xb0	0.031397518
213	0x9e	0.018553078
214	0xc8	0.048523437
215	0x81	-0.00214074
216	0xb6	0.035678998
217	0x80	-0.0028543198
218	0xa0	0.019980239
219	0x81	-0.00214074
220	0x86	0.0014271599
221	0x73	-0.012130859
222	0x5d	-0.027829617
223	0xdc	0.062795036
224	0xb9	0.037819736
225	0xae	0.029970357
226	0xa2	0.021407397
227	0x6c	-0.01712592
228	0x46	-0.044241957
229	0x67	-0.020693818
230	0xfa	0.08420243
231	0x79	-0.007849379
232	0x89	0.0035678996
233	0xaf	0.030683937
234	0xa0	0.019980239
235	0x74	-0.011417279
236	0x76	-0.009990119
237	0x85	0.00071357994
238	0x72	-0.012844439
239	0xb1	0.032111097
240	0x2a	-0.064222194
241	0xbb	0.0392469
242	0xa0	0.019980239
243	0x6d	-0.016412338
244	0x4f	-0.037819736
245	0x50	-0.037106156
246	0xc9	0.049237017
247	0x5d	-0.027829617
248	0x2f	-0.060654294
249	0xaa	0.027116038
250	0x9c	0.01712592
251	0x63	-0.023548137
252	0x3f	-0.049237017
253	0x59	-0.030683937
254	0x63	-0.023548137
255	0x90	0.00856296

weights_quant_1/FakeQuantWithMinMaxVars/transpose u1 [4, 4000] scale=0.00041961318 zero_point=126
0	0x67	-0.009651103
1	0x6d	-0.007133424
2	0x74	-0.0041961316
3	0x77	-0.0029372922
4	0x35	-0.030631762
5	0x66	-0.010070716
6	0x87	0.0037765186
7	0x95	0.009651103
8	0x8e	0.006713811
9	0x82	0.0016784527
10	0x5e	-0.013427622
11	0x70	-0.0058745844
12	0x6e	-0.006713811
13	0xa7	0.01720414
14	0x60	-0.012588396
15	0x64	-0.010909943
16	0x86	0.0033569054
17	0x5e	-0.013427622
18	0x93	0.008811877
19	0x7a	-0.0016784527
20	0x76	-0.0033569054
21	0x74	-0.0041961316
22	0x71	-0.0054549715
23	0x8c	0.0058745844
24	0x61	-0.012168782
25	0x71	-0.0054549715
26	0x60	-0.012588396
27	0x8b	0.0054549715
28	0x83	0.0020980658
29	0x48	-0.022659112
30	0x8b	0.0054549715
31	0x5f	-0.013008009
32	0x95	0.009651103
33	0x99	0.011329556
34	0x5b	-0.014686462
35	0x59	-0.0155256875
36	0x49	-0.022239499
37	0x44	-0.024337564
38	0x79	-0.0020980658
39	0x62	-0.011749169
40	0x8e	0.006713811
41	0x77	-0.0029372922
42	0x71	-0.0054549715
43	0x89	0.004615745
44	0x64	-0.010909943
45	0x46	-0.023498338
46	0x8f	0.007133424
47	0x8e	0.006713811
48	0x80	0.00083922636
49	0x73	-0.004615745
50	0x71	-0.0054549715
51	0x81	0.0012588395
52	0x85	0.0029372922
53	0x4a	-0.021819886
54	0x73	-0.004615745
55	0x57	-0.016364913
56	0x66	-0.010070716
57	0x58	-0.0159453
58	0x75	-0.0037765186
59	0x93	0.008811877
60	0x99	0.011329556
61	0x58	-0.0159453
62	0x8a	0.005035358
63	0x7b	-0.0012588395
64	0x87	0.0037765186
65	0x81	0.0012588395
66	0xa1	0.014686462
67	0x46	-0.023498338
68	0x79	-0.0020980658
69	0x6c	-0.0075530373
70	0x83	0.0020980658
71	0x7a	-0.0016784527
72	0x92	0.008392263
73	0x74	-0.0041961316
74	0x6f	-0.006294198
75	0x6b	-0.00797265
76	0x79	-0.0020980658
77	0x77	-0.0029372922
78	0x97	0.010490329
79	0x8a	0.005035358
80	0x95	0.009651103
81	0x75	-0.0037765186
82	0xa2	0.0151060745
83	0x49	-0.022239499
84	0x80	0.00083922636
85	0x4e	-0.020141432
86	0x7f	0.00041961318
87	0x6d	-0.007133424
88	0xaa	0.01846298
89	0xac	0.019302206
90	0x6c	-0.0075530373
91	0x5d	-0.013847235
92	0x57	-0.016364913
93	0x82	0.0016784527
94	0x97	0.010490329
95	0x77	-0.0029372922
96	0x6f	-0.006294198
97	0x75	-0.0037765186
98	0x95	0.009651103
99	0x73	-0.004615745
100	0x7e	0.0
101	0x51	-0.018882593
102	0x9f	0.013847235
103	0x5b	-0.014686462
104	0x54	-0.017623754
105	0x92	0.008392263
106	0x60	-0.012588396
107	0x72	-0.005035358
108	0x80	0.00083922636
109	0x6a	-0.008392263
110	0x92	0.008392263
111	0x83	0.0020980658
112	0x9b	0.012168782
113	0x85	0.0029372922
114	0x7b	-0.0012588395
115	0x4d	-0.020561045
116	0x55	-0.01720414
117	0x4d	-0.020561045
118	0xb2	0.021819886
119	0x7d	-0.00041961318
120	0x65	-0.010490329
121	0x95	0.009651103
122	0x76	-0.0033569054
123	0x42	-0.025176791
124	0x61	-0.012168782
125	0x49	-0.022239499
126	0xa2	0.0151060745
127	0x73	-0.004615745
128	0x9f	0.013847235
129	0x7d	-0.00041961318
130	0x7c	-0.00083922636
131	0x54	-0.017623754
132	0x51	-0.018882593
133	0x76	-0.0033569054
134	0xa1	0.014686462
135	0x7f	0.00041961318
136	0x86	0.0033569054
137	0x69	-0.008811877
138	0x98	0.010909943
139	0x59	-0.0155256875
140	0x6d	-0.007133424
141	0x84	0.002517679
142	0x9f	0.013847235
143	0x7b	-0.0012588395
144	0x86	0.0033569054
145	0x79	-0.0020980658
146	0x88	0.0041961316
147	0x55	-0.01720414
148	0x9c	0.012588396
149	0x72	-0.005035358
150	0x95	0.009651103
151	0x8a	0.005035358
152	0x91	0.00797265
153	0x7a	-0.0016784527
154	0x77	-0.0029372922
155	0x95	0.009651103
156	0x7b	-0.0012588395
157	0x87	0.0037765186
158	0x87	0.0037765186
159	0x85	0.0029372922
160	0x95	0.009651103
161	0x72	-0.005035358
162	0x77	-0.0029372922
163	0x59	-0.0155256875
164	0x7c	-0.00083922636
165	0x80	0.00083922636
166	0x90	0.0075530373
167	0x8f	0.007133424
168	0x8a	0.005035358
169	0x62	-0.011749169
170	0x76	-0.0033569054
171	0x9f	0.013847235
172	0x64	-0.010909943
173	0x84	0.002517679
174	0x71	-0.0054549715
175	0x7e	0.0
176	0x7c	-0.00083922636
177	0x66	-0.010070716
178	0x8e	0.006713811
179	0x94	0.00923149
180	0x6e	-0.006713811
181	0xaa	0.01846298
182	0x77	-0.0029372922
183	0x5c	-0.014266848
184	0x6b	-0.00797265
185	0x63	-0.011329556
186	0x68	-0.00923149
187	0x82	0.0016784527
188	0x89	0.004615745
189	0x46	-0.023498338
190	0x61	-0.012168782
191	0x74	-0.0041961316
192	0x8e	0.006713811
193	0x85	0.0029372922
194	0x6b	-0.00797265
195	0x57	-0.016364913
196	0x74	-0.0041961316
197	0x50	-0.019302206
198	0x87	0.0037765186
199	0x66	-0.010070716
200	0x87	0.0037765186
201	0x98	0.010909943
202	0x59	-0.0155256875
203	0x7d	-0.00041961318
204	0xa2	0.0151060745
205	0x59	-0.0155256875
206	0x75	-0.0037765186
207	0x64	-0.010909943
208	0x72	-0.005035358
209	0x8c	0.0058745844
210	0x6a	-0.008392263
211	0x92	0.008392263
212	0x8c	0.0058745844
213	0x56	-0.016784526
214	0x88	0.0041961316
215	0x7a	-0.0016784527
216	0x6e	-0.006713811
217	0x77	-0.0029372922
218	0x9c	0.012588396
219	0x82	0.0016784527
220	0x7e	0.0
221	0x5a	-0.0151060745
222	0x91	0.00797265
223	0x80	0.00083922636
224	0x9c	0.012588396
225	0x9e	0.013427622
226	0x60	-0.012588396
227	0x8b	0.0054549715
228	0x6d	-0.007133424
229	0x76	-0.0033569054
230	0x8d	0.006294198
231	0x68	-0.00923149
232	0x6c	-0.0075530373
233	0x70	-0.0058745844
234	0x6f	-0.006294198
235	0x8b	0.0054549715
236	0x61	-0.012168782
237	0x6e	-0.006713811
238	0x86	0.0033569054
239	0x78	-0.002517679
240	0x81	0.0012588395
241	0x81	0.0012588395
242	0x77	-0.0029372922
243	0x79	-0.0020980658
244	0x76	-0.0033569054
245	0x69	-0.008811877
246	0x7d	-0.00041961318
247	0x7b	-0.0012588395
248	0x96	0.010070716
249	0x8b	0.0054549715
250	0x95	0.009651103
251	0x91	0.00797265
252	0xa2	0.0151060745
253	0x7b	-0.0012588395
254	0x86	0.0033569054
255	0x8d	0.006294198
